…
    \ 0. 0. 0. 0. 0. 0. 0.\n 0. 0. 0. 0.], sigma=[0.2 0.2 0.2 0.2 0.2 0.2 0.2 0.2\
    \ 0.2 0.2 0.2 0.2 0.2 0.2 0.2 0.2 0.2 0.2\n 0.2 0.2 0.2 0.2 0.2 0.2 0.2 0.2 0.2\
    \ 0.2])"
action_space:
  desc: null
  value: "Box([-1. -1. -1. -1. -1. -1. -1. -1. -1. -1. -1. -1. -1. -1. -1. -1. -1.\
    \ -1.\n -1. -1. -1. -1. -1. -1. -1. -1. -1. -1.], [1. 1. 1. 1. 1. 1. 1. 1. 1.\
    \ 1. 1. 1. 1. 1. 1. 1. 1. 1. 1. 1. 1. 1. 1. 1.\n 1. 1. 1. 1.], (28,), float32)"
actor:
  desc: null
  value: "Actor(\n  (features_extractor): FlattenExtractor(\n    (flatten): Flatten(start_dim=1,\
    \ end_dim=-1)\n  )\n  (latent_pi): Sequential(\n    (0): Linear(in_features=39,\
    \ out_features=256, bias=True)\n    (1): ReLU()\n    (2): Linear(in_features=256,\
    \ out_features=256, bias=True)\n    (3): ReLU()\n  )\n  (mu): Linear(in_features=256,\
    \ out_features=28, bias=True)\n  (log_std): Linear(in_features=256, out_features=28,\
    \ bias=True)\n)"
algo:
  desc: null
  value: SAC
batch_size:
  desc: null
  value: 256
buffer_size:
  desc: null
  value: 3000000
config_file:
  desc: null
  value: config.yml
critic:
  desc: null
  value: "ContinuousCritic(\n  (features_extractor): FlattenExtractor(\n    (flatten):\
    \ Flatten(start_dim=1, end_dim=-1)\n  )\n  (qf0): Sequential(\n    (0): Linear(in_features=67,\
    \ out_features=256, bias=True)\n    (1): ReLU()\n    (2): Linear(in_features=256,\
    \ out_features=256, bias=True)\n    (3): ReLU()\n    (4): Linear(in_features=256,\
    \ out_features=1, bias=True)\n  )\n  (qf1): Sequential(\n    (0): Linear(in_features=67,\
    \ out_features=256, bias=True)\n    (1): ReLU()\n    (2): Linear(in_features=256,\
    \ out_features=256, bias=True)\n    (3): ReLU()\n    (4): Linear(in_features=256,\
    \ out_features=1, bias=True)\n  )\n)"
critic_target:
  desc: null
  value: "ContinuousCritic(\n  (features_extractor): FlattenExtractor(\n    (flatten):\
    \ Flatten(start_dim=1, end_dim=-1)\n  )\n  (qf0): Sequential(\n    (0): Linear(in_features=67,\
    \ out_features=256, bias=True)\n    (1): ReLU()\n    (2): Linear(in_features=256,\
    \ out_features=256, bias=True)\n    (3): ReLU()\n    (4): Linear(in_features=256,\
    \ out_features=1, bias=True)\n  )\n  (qf1): Sequential(\n    (0): Linear(in_features=67,\
    \ out_features=256, bias=True)\n    (1): ReLU()\n    (2): Linear(in_features=256,\
    \ out_features=256, bias=True)\n    (3): ReLU()\n    (4): Linear(in_features=256,\
    \ out_features=1, bias=True)\n  )\n)"
device:
  desc: null
  value: cuda
ent_coef:
  desc: null
  value: auto_5
ent_coef_optimizer:
  desc: null
  value: "Adam (\nParameter Group 0\n    amsgrad: False\n    betas: (0.9, 0.999)\n\
    \    eps: 1e-08\n    lr: 0.0003\n    weight_decay: 0\n)"
env:
  desc: null
  value: door-expert-v1
ep_info_buffer:
  desc: null
  value: deque([], maxlen=100)
…
    \ -inf -inf -inf -inf -inf -inf -inf -inf -inf -inf -inf -inf -inf -inf\n -inf\
    \ -inf -inf -inf -inf -inf -inf -inf -inf -inf -inf], [inf inf inf inf inf inf\
    \ inf inf inf inf inf inf inf inf inf inf inf inf\n inf inf inf inf inf inf inf\
    \ inf inf inf inf inf inf inf inf inf inf inf\n inf inf inf], (39,), float32)"
optimize_memory_usage:
  desc: null
  value: 'False'
policy:
  desc: null
  value: "SACPolicy(\n  (actor): Actor(\n    (features_extractor): FlattenExtractor(\n\
    \      (flatten): Flatten(start_dim=1, end_dim=-1)\n    )\n    (latent_pi): Sequential(\n\
    \      (0): Linear(in_features=39, out_features=256, bias=True)\n      (1): ReLU()\n\
    \      (2): Linear(in_features=256, out_features=256, bias=True)\n      (3): ReLU()\n\
    \    )\n    (mu): Linear(in_features=256, out_features=28, bias=True)\n    (log_std):\
    \ Linear(in_features=256, out_features=28, bias=True)\n  )\n  (critic): ContinuousCritic(\n\
    \    (features_extractor): FlattenExtractor(\n      (flatten): Flatten(start_dim=1,\
    \ end_dim=-1)\n    )\n    (qf0): Sequential(\n      (0): Linear(in_features=67,\
    \ out_features=256, bias=True)\n      (1): ReLU()\n      (2): Linear(in_features=256,\
    \ out_features=256, bias=True)\n      (3): ReLU()\n      (4): Linear(in_features=256,\
    \ out_features=1, bias=True)\n    )\n    (qf1): Sequential(\n      (0): Linear(in_features=67,\
    \ out_features=256, bias=True)\n      (1): ReLU()\n      (2): Linear(in_features=256,\
    \ out_features=256, bias=True)\n      (3): ReLU()\n      (4): Linear(in_features=256,\
    \ out_features=1, bias=True)\n    )\n  )\n  (critic_target): ContinuousCritic(\n\
    \    (features_extractor): FlattenExtractor(\n      (flatten): Flatten(start_dim=1,\
    \ end_dim=-1)\n    )\n    (qf0): Sequential(\n      (0): Linear(in_features=67,\
    \ out_features=256, bias=True)\n      (1): ReLU()\n      (2): Linear(in_features=256,\
    \ out_features=256, bias=True)\n      (3): ReLU()\n      (4): Linear(in_features=256,\
    \ out_features=1, bias=True)\n    )\n    (qf1): Sequential(\n      (0): Linear(in_features=67,\
    \ out_features=256, bias=True)\n      (1): ReLU()\n      (2): Linear(in_features=256,\
    \ out_features=256, bias=True)\n      (3): ReLU()\n      (4): Linear(in_features=256,\
    \ out_features=1, bias=True)\n    )\n  )\n)"
policy_class:
  desc: null
  value: <class 'stable_baselines3.sac.policies.SACPolicy'>
policy_kwargs:
  desc: null
  value: '{''use_sde'': False}'
remove_time_limit_termination:
  desc: null
  value: 'False'
replay_buffer:
  desc: null
  value: <stable_baselines3.common.buffers.ReplayBuffer object at 0x7fef344f14f0>
replay_buffer_class:
…
