…
. 1. 1. 1. 1. 1. 1. 1. 1. 1. 1. 1. 1. 1. 1. 1. 1. 1. 1. 1. 1. 1. 1.\n 1. 1. 1. 1.], (28,), float32)', 'n_envs': 1, 'num_timesteps': 0, '_total_timesteps': 20000, 'eval_env': 'None', 'seed': 'None', 'action_noise': 'NormalActionNoise(mu=[0. 0. 0. 0. 0. 0. 0. 0. 0. 0. 0. 0. 0. 0. 0. 0. 0. 0. 0. 0. 0. 0. 0. 0.\n 0. 0. 0. 0.], sigma=[… 0.2\n 0.2 0.2 0.2 0.2 0.2 0.2 0.2 0.2 0.2 0.2])', 'start_time': 1644803758.911492, 'policy': 'SACPolicy(\n  (actor): Actor(\n    (features_extractor): FlattenExtractor(\n      (flatten): Flatten(start_dim=1, end_dim=-1)\n    )\n    (latent_pi): Sequential(\n      (0): Linear(in_features=39, out_features=256, bias=True)\n      (1): ReLU()\n      (2): Linear(in_features=256, out_features=256, bias=True)\n      (3): ReLU()\n    )\n    (mu): Linear(in_features=256, out_features=28, bias=True)\n    (log_std): Linear(in_features=256, out_features=28, bias=True)\n  )\n  (critic): ContinuousCritic(\n    (features_extractor): FlattenExtractor(\n      (flatten): Flatten(start_dim=1, end_dim=-1)\n    )\n    (qf0): Sequential(\n      (0): Linear(in_features=67, out_features=256, bias=True)\n      (1): ReLU()\n      (2): Linear(in_features=256, out_features=256, bias=True)\n      (3): ReLU()\n      (4): Linear(in_features=256, out_features=1, bias=True)\n    )\n    (qf1): Sequential(\n      (0): Linear(in_features=67, out_features=256, bias=True)\n      (1): ReLU()\n      (2): Linear(in_features=256, out_features=256, bias=True)\n      (3): ReLU()\n      (4): Linear(in_features=256, out_features=1, bias=True)\n    )\n  )\n  (critic_target): ContinuousCritic(\n    (features_extractor): FlattenExtractor(\n      (flatten): Flatten(start_dim=1, end_dim=-1)\n    )\n    (qf0): Sequential(\n      (0): Linear(in_features=67, out_features=256, bias=True)\n      (1): ReLU()\n      (2): Linear(in_features=256, out_features=256, bias=True)\n      (3): ReLU()\n      (4): Linear(in_features=256, out_features=1, bias=True)\n    )\n    (qf1): Sequential(\n      (0): Linear(in_features=67, out_features=256, bias=True)\n      (1): ReLU()\n      (2): Linear(in_features=256, out_features=256, bias=True)\n      (3): ReLU()\n      (4): Linear(in_features=256, out_features=1, bias=True)\n    )\n  )\n)', 'learning_rate': 0.0003, 'tensorboard_log': '/media/biswas/D/rl_irl/test_env/door-expert-v1/13_02_2022-17_55_44/', 'lr_schedule': '<function constant_fn.<locals>.func at 0x7fef3448b5e0>', '_last_obs': '[[ 0.          0.          0.          0.          0.          0.\n   0.          0.          0.          0.          0.          0.\n   
…
86d86d0>', '_custom_logger': 'True', 'buffer_size': 3000000, 'batch_size': 256, 'learning_starts': 10000, 'tau': 0.01, 'gamma': 0.99, 'gradient_steps': 1, 'optimize_memory_usage': 'False', 'replay_buffer_class': "<class 'stable_baselines3.common.buffers.ReplayBuffer'>", 'replay_buffer_kwargs': '{}', '_episode_storage': 'None', 'remove_time_limit_termination': 'False', 'train_freq': "TrainFreq(frequency=1, unit=<TrainFrequencyUnit.STEP: 'step'>)", 'actor': 'Actor(\n  (features_extractor): FlattenExtractor(\n    (flatten): Flatten(start_dim=1, end_dim=-1)\n  )\n  (latent_pi): Sequential(\n    (0): Linear(in_features=39, out_features=256, bias=True)\n    (1): ReLU()\n    (2): Linear(in_features=256, out_features=256, bias=True)\n    (3): ReLU()\n  )\n  (mu): Linear(in_features=256, out_features=28, bias=True)\n  (log_std): Linear(in_features=256, out_features=28, bias=True)\n)', 'replay_buffer': '<stable_baselines3.common.buffers.ReplayBuffer object at 0x7fef344f14f0>', 'use_sde_at_warmup': 'False', 'target_entropy': '-28.0', 'log_ent_coef': "tensor([1.6094], device='cuda:0', requires_grad=True)", 'ent_coef': 'auto_5', 'target_update_interval': 1, 'ent_coef_optimizer': 'Adam (\nParameter Group 0\n    amsgrad: False\n    betas: (0.9, 0.999)\n    eps: 1e-08\n    lr: 0.0003\n    weight_decay: 0\n)', 'critic': 'ContinuousCritic(\n  (features_extractor): FlattenExtractor(\n    (flatten): Flatten(start_dim=1, end_dim=-1)\n  )\n  (qf0): Sequential(\n    (0): Linear(in_features=67, out_features=256, bias=True)\n    (1): ReLU()\n    (2): Linear(in_features=256, out_features=256, bias=True)\n    (3): ReLU()\n    (4): Linear(in_features=256, out_features=1, bias=True)\n  )\n  (qf1): Sequential(\n    (0): Linear(in_features=67, out_features=256, bias=True)\n    (1): ReLU()\n    (2): Linear(in_features=256, out_features=256, bias=True)\n    (3): ReLU()\n    (4): Linear(in_features=256, out_features=1, bias=True)\n  )\n)', 'critic_target': 'ContinuousCritic(\n  (features_extractor): FlattenExtractor(\n    (flatten): Flatten(start_dim=1, end_dim=-1)\n  )\n  (qf0): Sequential(\n    (0): Linear(in_features=67, out_features=256, bias=True)\n    (1): ReLU()\n    (2): Linear(in_features=256, out_features=256, bias=True)\n    (3): ReLU()\n    (4): Linear(in_features=256, out_features=1, bias=True)\n  )\n  (qf1): Sequential(\n    (0): Linear(in_features=67, out_features=256, bias=True)\n    (1): ReLU()\n    (2): Linear(in_features=256, out_features=256, bias=True)\n    (3): ReLU()\n    (4): Linear(in_features=256, out_features=1, bias=True)\n  )\n)'}
2022-02-13 18:00:55,622 INFO    MainThread:27971 [wandb_watch.py:watch():43] Watching
2022-02-13 18:00:55,622 INFO    MainThread:27971 [wandb_run.py:_config_callback():966] config_cb None None {}
2022-02-13 18:09:18,298 INFO    MainThread:27971 [wandb_watch.py:watch():43] Watching
2022-02-13 18:09:18,299 INFO    MainThread:27971 [wandb_run.py:_config_callback():966] config_cb None None {}
…
